…
Skipping registering GPU devices...
2026-02-18 16:28:58.492636: I tensorflow/core/platform/cpu_feature_guard.cc:193] This TensorFlow binary is optimized with oneAPI Deep Neural Network Library (oneDNN) to use the following CPU instructions in performance-critical operations:  AVX AVX2
To enable them in other operations, rebuild TensorFlow with the appropriate compiler flags.
Model: "sequential"
_________________________________________________________________
 Layer (type)                Output Shape              Param #
=================================================================
 conv1d (Conv1D)             (None, 48, 32)            9632

 batch_normalization (BatchN  (None, 48, 32)           128
 ormalization)

 max_pooling1d (MaxPooling1D  (None, 24, 32)           0
 )

 conv1d_1 (Conv1D)           (None, 22, 64)            6208

 batch_normalization_1 (Batc  (None, 22, 64)           256
 hNormalization)

 max_pooling1d_1 (MaxPooling  (None, 11, 64)           0
 1D)

 conv1d_2 (Conv1D)           (None, 9, 128)            24704

 batch_normalization_2 (Batc  (None, 9, 128)           512
 hNormalization)

 max_pooling1d_2 (MaxPooling  (None, 4, 128)           0
 1D)

 flatten (Flatten)           (None, 512)               0

 dropout (Dropout)           (None, 512)               0

 dense (Dense)               (None, 128)               65664

 dropout_1 (Dropout)         (None, 128)               0

 dense_1 (Dense)             (None, 3)                 387       

=================================================================
Total params: 107,491
Trainable params: 107,043
Non-trainable params: 448
_________________________________________________________________
Epoch 1/50
1/1 [==============================] - 2s 2s/step - loss: 2.1270 - accuracy: 0.3333 - val_loss: 1.0040 - val_accuracy: 0.5000 - lr: 0.0010
Epoch 2/50
1/1 [==============================] - 0s 67ms/step - loss: 1.4370 - accuracy: 0.5000 - val_loss: 0.8911 - val_accuracy: 0.6667 - lr: 0.0010
…
